…
2023-07-20 20:37:47.582486: I tensorflow/core/common_runtime/gpu/gpu_device.cc:1635] Created device /job:localhost/replica:0/task:0/device:GPU:0 with 14587 MB memory:  -> device: 0, name: Tesla V100-PCIE-16GB, pci bus id: 0000:3b:00.0, compute capability: 7.0
Model: "autoencoder"
_________________________________________________________________
 Layer (type)                Output Shape              Param #   
=================================================================
 input_1 (InputLayer)        [(None, 160, 192, 160, 1  0         
                             )]                                  
                                                                 
 conv3d (Conv3D)             (None, 160, 192, 160, 4)  504       
                                                                 
 max_pooling3d (MaxPooling3D  (None, 80, 96, 80, 4)    0         
 )                                                               
                                                                 
 conv3d_1 (Conv3D)           (None, 80, 96, 80, 16)    8016      
                                                                 
 max_pooling3d_1 (MaxPooling  (None, 40, 48, 40, 16)   0         
 3D)                                                             
                                                                 
 conv3d_2 (Conv3D)           (None, 40, 48, 40, 32)    13856     
                                                                 
 max_pooling3d_2 (MaxPooling  (None, 20, 24, 20, 32)   0         
 3D)                                                             
                                                                 
 conv3d_3 (Conv3D)           (None, 20, 24, 20, 1)     865       
                                                                 
 max_pooling3d_3 (MaxPooling  (None, 10, 12, 10, 1)    0         
 3D)                                                             
                                                                 
 decoder (Functional)        (None, None, None, None,  19177     
                              1)                                 
                                                                 
=================================================================
…
